project_one_navigation/checkpoint.pth (torch_old, 19785 bytes, 6 tensors)

hidden_layers.0.weight f4 [50, 37]
00000000: cd87 ff3c 73d9 5d3c 15a5 0cbd bdaa f93c
00000010: d501 08bd b03f 7dbd 33a8 6d3e 4b1a 7b3e
00000020: 53d9 b23e bd09 b13e b152 133d adc6 123c
00000030: 5f22 cf3d 09b4 853d 2e8d 003d e94f 073e
00000040: 74f8 df3d e90e 083e 2e2e 2b3e 12e7 5d3d
00000050: 40fe 243e 0863 7dbf eaa3 69bf 3dc7 9ebf
00000060: 4488 58c0 74e8 82bd 4e8b 0c3e b643 d13d
00000070: e8bb 693e 08c2 613e 19eb 073e c8a4 e43c
00000080: e98e 3b3d a386 d53d 6074 963d 7f41 e33c
00000090: a0f4 653c 591c ca3c 9184 473d c1ba 3e3d
000000a0: 6c1b 933c a1db e6bc d55a 09bc 76f0 17be
000000b0: 04d0 9e3e adb6 893f 780b f43f c75b 41bd
000000c0: be17 43bd d7d6 bbbc ee47 39bd 36aa a1bc
000000d0: 1b85 463b 7a2d 51bc d815 5cbc 06be d5bc
000000e0: 7bfe 0fbd 8e1b 2ebe 8bbb 36be f985 12be
000000f0: c46a 03be 5d52 223c be6a a9bd 4e8f d8bd
00000100: afdd ffbc 696c a8bd 7f66 273d aacb 3dbd
00000110: c135 a1bb 8282 38bc 456e 3abc 3391 23bd
00000120: b2a6 943b 7354 40bb cce2 6fbe 2ed8 83be
00000130: 5855 bcbd 347b bbbe 9060 34bf 43ce d0be
00000140: 5fbe c4be 1f25 8d3e 7289 42bf 4a45 cbc0
00000150: 71d0 00be 16c9 febe 4714 e5be fba3 0fbe
00000160: 0874 87bd 3db8 87be 2675 1ebe 17bb a53d
00000170: 93ea e5be 0288 4ac0 a964 87be 5b08 7bbe
00000180: 6bc7 c0be b359 87be d5f1 003d bb43 c3be
00000190: 2003 9abe 1c6c e23e fbe3 03bf 1d1a d8c0
000001a0: dbf4 65be 5642 73be c392 e5be 9546 0dbf
000001b0: af54 eebe f074 063e 225f ea3d bebf 14bd
000001c0: e3d8 ad3c 204f 403b a538 b93b e332 bd3b
000001d0: a4ed 7dbe 6fb6 2e3f ce18 053f 4411 313f
000001e0: f6f0 ab3f 41c3 d0bd 5613 acbd d272 c1bd
000001f0: 1b5e 02be 100a 69b9 087c 0bbe b461 0fbe
00000200: cd5f 06be 672b 37be d32e 58bd 7ff5 2cbd
00000210: 6529 babc 9a8a 8fbc 07f6 41bd fc98 09bc
00000220: f702 8cbd 5eb7 b8bd 3b98 abbd a06d 26bd
00000230: 10cf ba3c 52a2 babd 4ba2 243d 8950 3c3b
00000240: b9b7 23bb 7721 853b bc9f b5bb c76a a7bc
00000250: 6377 c2bc a257 e2bd f935 4dbd cd1a 8e3c
00000260: 7018 c43d 66c5 5a3e eb39 25bf 86dc 2abf
00000270: a86f 4bbf 811a 5dc0 f122 533c 4b02 c6bc
00000280: 389a 6c3c ffe9 1a3d 5535 713d 528c 2dbc
00000290: 97ed 293c 1f8a a63c f982 503d 21dc 553d
000002a0: 35bb 383d 59ea d63c 8c4f 9b3c d211 c23d
000002b0: 5085 ca3d 4d59 a03d f46a 163e 58c8 ce3d
000002c0: 93df 0d3e dbfd d63d 4df2 2f3e 3da1 673d
000002d0: 9747 2d3e 82db 183e 077d b13d 085c cf3c
000002e0: d324 e83b 21a3 0bbd 4e98 a8bc 8245 b93c
000002f0: c031 ba3c 35f4 db3d e7d3 953e 62c7 18bf
00000300: daf0 23bf 7589 5bbf deb9 45c0 d33b 09bd
00000310: d6fb 913c 2b9d a8bd 4ab1 3bbd 5428 943d
00000320: b45b 233d 72cc 583c c398 513d 987d 193d
00000330: 45a5 213d 69d0 693d 11f3 7c3d 512b ae3d
00000340: 5b77 213e ba81 253e 6f73 273d 4f41 a83d
00000350: 5ce5 e73d 78be dd3d 70dc 6b3d 49de 273d
00000360: 5293 5db9 0def 0b3d 31e5 3f3e 5973 1e3e
00000370: bdff eebc 16ff 143c be8e fd3c a5d2 273d
00000380: 5c90 ca3d 44c6 ae3d b71e 5b3d b95d 04be
00000390: bee4 713d c301 283d 4249 173e dfd7 0c3e
000003a0: c535 093e 7198 b43d 8bcb 633d 299e f83d
000003b0: 4074 d23d 319a bebc effc 0a3d 0201 14bd
000003c0: 545d a13d 847e 033d d8ac 623c 46f5 c33b
000003d0: 0609 793d c746 013e 9160 613c 5421 fcbd
000003e0: 8273 bebb 9801 13bd b9c6 63bb 60ae e43d
000003f0: a690 273e 744d 80bf 012f 79bf b813 a4bf
0.031192685 0.013540613 -0.034337122 0.030476922 -0.033204872 -0.061828315 0.23208694 0.24521749
0.3493143 0.34577742 0.035967533 0.008958501 0.10113978 0.065284796 0.03138464 0.13214077
0.109360605 0.13286938 0.16716835 0.054175444 0.16112614 -0.98979235 -0.9126574 -1.2404553
-3.383317 -0.06391993 0.13725016 0.10217993 0.22825587 0.22046673 0.13273276 0.027910605
0.045790587 0.104260705 0.073464155 0.027741192 0.014035374 0.02467172 0.04871041 0.04656482
0.017957412 -0.0281809 -0.008383472 -0.14837822 0.31018078 1.0758873 1.9066 -0.047206666
-0.047630064 -0.022929592 -0.045234613 -0.019734483 0.003029174 -0.01276719 -0.013432942 -0.026091587
-0.0351548 -0.17002699 -0.1784498 -0.14308919 -0.12833697 0.009907332 -0.082723126 -0.10574208
-0.031233637 -0.082238026 0.040869232 -0.046336807 -0.004919738 -0.011261584 -0.011378829 -0.039933395
0.004536473 -0.002934721 -0.2342636 -0.2575087 -0.091959655 -0.36617434 -0.7045984 -0.40782365
-0.38426492 0.27567384 -0.75990975 -6.352208 -0.12579514 -0.4976279 -0.44742033 -0.14027397
-0.06613928 -0.2650775 -0.15474376 0.08092325 -0.44905528 -3.1645513 -0.26443985 -0.24514906
-0.37652144 -0.26435623 0.03148063 -0.38137612 -0.3008051 0.44223106 -0.51519746 -6.7531877
-0.22456686 -0.23755774 -0.44838533 -0.55185825 -0.46548983 0.13130546 0.114439264 -0.036315672
0.021221584 0.0029344037 0.0056525045 0.0057738884 -0.24797684 0.6824712 0.51990974 0.6916697
1.343291 -0.10193492 -0.084021255 -0.09445728 -0.12731211 -0.0002222436 -0.13621533 -0.14002115
-0.13122483 -0.1788765 -0.05277903 -0.04222631 -0.022724817 -0.017522145 -0.04735377 -0.008398291
-0.06836503 -0.090193495 -0.08378645 -0.04063189 0.022803813 -0.091129914 0.040193837 0.0028734526
-0.0024981333 0.004062827 -0.0055427235 -0.020436658 -0.023738569 -0.11051871 -0.0501003 0.017346764
0.095749736 0.21364364 -0.645415 -0.6674274 -0.7946725 -3.4547427 0.012886749 -0.024171015
0.0144410655 0.037820812 0.058888752 -0.010592537 0.010371587 0.020329533 0.050906155 0.052211884
0.04510041 0.026234793 0.01895883 0.09476055 0.098887086 0.07829533 0.14689237 0.10096806
0.13854818 0.10497638 0.17182274 0.056550253 0.1692184 0.14927486 0.08666425 0.025312439
0.007084468 -0.03409112 -0.020580437 0.022616152 0.0227288 0.10739938 0.2926323 -0.59679234
-0.64039385 -0.8575662 -3.0894694 -0.03350432 0.01782028 -0.082331024 -0.045823373 0.072342545
0.039882377 0.013232337 0.051171076 0.03747329 0.039464254 0.05708352 0.061755244 0.08504356
0.15768187 0.16162768 0.04088157 0.082155816 0.11323044 0.10827345 0.057583272 0.040983472
-0.00021131083 0.034163523 0.18739773 0.15473689 -0.02917468 0.00909402 0.030951854 0.04097237
0.098908156 0.0853391 0.05349609 -0.12926377 0.059056036 0.041017305 0.1477404 0.13754223
0.13399418 0.088181384 0.055614036 0.12139542 0.10276079 -0.023266884 0.033932623 -0.036133774
0.07879129 0.032103077 0.0138351545 0.0059801666 0.06079962 0.12624656 0.013755933 -0.12311044
-0.0058121094 -0.03589019 -0.00347559 0.11166072 0.16363773 -1.0023637 -0.9733735 -1.2818518

hidden_layers.0.bias f4 [50]
00000000: c83e 02be 0394 423d d33c 4a3e edf7 803e
00000010: 1ab7 913c e243 adbc 2427 8fbd b89a 183d
00000020: 6431 22be a80d 0bbd c6ad a7be 6eef e83c
00000030: ca15 e33e 2f8f 27bd fd22 93bd 1113 b8bc
00000040: a750 a43e a7d3 fcbd 9937 843e 2dcb d43e
00000050: 2ca1 59bd 4185 40be 1a5a 413e a778 02be
00000060: 2409 15be 3444 77be 5e35 42be 8966 29be
00000070: bec9 32be d168 39be bd1b 363e e945 73be
00000080: f7eb aebd a667 a5be 0326 81be 5e4f a0be
00000090: 25e4 6e3e 8b06 95be 1e77 8abe 37ca 51be
000000a0: c835 5dbe ece6 d73c dd1f 043f 5d93 14be
000000b0: beda 46be cd1e 4abe 7cc5 7c3e ee2c 2dbe
000000c0: ba2c d6bd 811c 93bd
-0.12719262 0.047504436 0.19749765 0.25189152 0.017787505 -0.021150533 -0.06989887 0.037256926
-0.15839154 -0.03394857 -0.32749766 0.028434481 0.4435256 -0.040908035 -0.07184408 -0.02247003
0.32092783 -0.12345057 0.25823668 0.4156126 -0.05313222 -0.18800832 0.18882027 -0.12741338
-0.14554268 -0.24147111 -0.1896567 -0.1654302 -0.17459771 -0.1810639 0.17784019 -0.23757137
-0.085411005 -0.3230564 -0.25224313 -0.31310552 0.23329218 -0.29106554 -0.27044004 -0.20487295
-0.21602547 0.02635523 0.5161112 -0.1450934 -0.19419381 -0.19738312 0.2468471 -0.1691167
-0.1045775 -0.07183171

hidden_layers.1.weight f4 [50, 50]
00000000: 769d 1d3e 4f99 21bc 5aee 89be 7969 eabc
00000010: 1936 563e e821 873d f492 903e 8a44 81be
00000020: bd73 ae3d 56cb a23d 7858 ae3e 7625 11bf
00000030: 5f7f 14bd 1087 3c3e 824e 943e 3713 4c3e
00000040: 0475 ccbb fcca 623d 316f 73bd bcce c8bc
00000050: 9c5c ee3c 99a8 b2bc 5df6 073c cd8b 003d
00000060: 3fd9 4e3d 891a 8e3e 66e1 efbe 23e9 9d3e
00000070: d2d9 563e a031 e3bb 3e92 8ebc 1fbd a2bc
00000080: 4b2e 8cbd 5581 873e 0b72 403e 1e49 663c
00000090: 0c7e 99bd d27f 943d d0c0 dfbe 3f00 d2bd
000000a0: 0eca 6a3e b849 dd3d 1f67 51bd bde1 a1bd
000000b0: 94b4 e33e 0686 663d 2d2c d239 a538 81bc
000000c0: 4399 fa3d e882 c0bd 2024 c3bd a9a3 2f3c
000000d0: d8b2 a2bd 63ad 7ebc 5c40 60be 0706 75be
000000e0: 9151 83be 6bec 343e 8fe6 62bd 7572 bbbd
000000f0: 359f 53be ea31 46be bc75 abbc 294a cabd
00000100: 7f3e 5cbe 3b12 643e 5a3e 353a 544b a6bd
00000110: bbe0 79bc b447 233c 7000 31be 7f80 e7bc
00000120: 9d3f 243b ee6c 0fbe 82a6 2ebe 3732 453d
00000130: 1a4c fa3d 96b9 533f 4a05 efbd a580 b3bd
00000140: d0d2 7abb b1e3 11be f66e 08bd bd1f c23e
00000150: 5c81 89bd 0cce adbd d992 14bd 5ea3 b1bd
00000160: 5c9b 5cbe a501 56bc b808 6cbe 181f 97bd
00000170: 9201 c1bc 1848 6ebc cc9a 29be 5149 843d
00000180: 474b 5bbc c54f 78be 900e 7ebe 4080 773d
00000190: dda3 54be e9e0 07bb acb8 243f 5936 81bc
000001a0: 4a84 bdbf 792a 1fc0 d6de 0fbf e462 ffbd
000001b0: 41c0 16bf ebcd 65bf ac77 65be 8d77 d2bf
000001c0: b66e 703b 6c1a 10c0 ec51 d1be 0b61 ed3c
000001d0: b6e2 99bb 79ad d5bc feac 7abb f138 8c3b
000001e0: c2f1 1fbe b176 063d c979 a1bc 94df 293c
000001f0: d6d4 00c0 feb2 65bf 70a1 15bf 2f4a f6bf
00000200: b79a fbbf 35c3 4d3d 33f2 43bf 98a5 993e
00000210: be88 113e c39d 45be 5282 bdbd 3835 a73d
00000220: 9e0b 85bb 1387 46bf 8936 4dbe ae87 7dbd
00000230: acd3 24bf 0292 45bf cc9d 36ba fbc4 023e
00000240: 1f48 0dbe 1a6b ba3c d66b b93c dc55 dcbf
00000250: 809a d5bf 8b34 85bd e6d1 61bd 127c 53bc
00000260: 1f70 313f 3173 cc3a 6c6e fbbf befd 09c0
00000270: 51c9 d0be 5e23 cf3d f98b 21c0 9b73 f4bf
00000280: 3abb f3bd cee1 ecbf 58d6 9ebc 9ea9 25c0
00000290: ae9f 9ebf 7d23 a2bd eefb 613b 938c d5bd
000002a0: a9da ad3b 1c41 cebb e4fc aabb 9f65 dc3d
000002b0: b728 89bc ba9b db3d b2cb 34c0 59dc 0cbf
000002c0: 3ea0 d5be 783d 20c0 f2a9 33c0 ce63 e6bd
000002d0: bc82 04bf a254 0f3e e16f 703e 632e 16bd
000002e0: b856 fabc c647 323e f907 613c 0b11 3bc0
000002f0: 16f6 a7bb bc30 b4bd ef64 ebbe a1ae 30c0
00000300: b462 633b 86c5 293d 1742 273e 97f3 e1bc
00000310: f07b 493c aa1f bfbf 1f57 ebbf 7a6e 083e
00000320: a15a 43bd f04c 3cbd aef4 4dbe a2cf 8ebe
00000330: 9fb1 2c3d e9df 0a3d 6c2f 383c 5aac 8fbb
00000340: b2b2 a13c 8d84 9f3b a631 32bd 94e9 c03d
00000350: bea1 23c0 f1d7 f73c 35bc 27bc d0d3 c23d
00000360: e542 0bbe db2d dabd 50de f3be 355a 0dc0
00000370: d7d6 34bd 3387 46bd d309 b0be 6d80 83bc
00000380: 50ab 9d3d 7e3d fa3b 0691 a13c 3a84 743d
00000390: 4ff0 903c b30b fabd b42d a6bd b73b fc3d
000003a0: 5c09 f1bd aa56 be3c 6c3b 1dbc de2d 56bd
000003b0: 1bb4 b7be 5d52 083d e448 2fbd 3985 30bd
000003c0: 55f9 4fbc 41af f6b9 4a80 f0bf 4019 33bd
000003d0: 18f3 b5bd 6889 1c3c 8c3a 80be 9541 2e3d
000003e0: 031f 153d 5fb6 6ebc 5835 3abd 88ff 3abd
000003f0: 89e2 80be 1901 62be cafb fc3c 9167 8dbc
0.15392098 -0.009863212 -0.2693966 -0.028614746 0.20919074 0.06598264 0.28237116 -0.25247604
0.08518169 0.079489395 0.3405187 -0.56697786 -0.036254283 0.18410897 0.28966147 0.19929205
-0.0062395353 0.055369362 -0.059432212 -0.024512641 0.029096894 -0.02180891 0.008298484 0.031383324
0.05050015 0.2775462 -0.46851653 0.30841932 0.2098153 -0.006933406 -0.017403718 -0.01986557
-0.06844767 0.2646586 0.18793504 0.014055518 -0.07494745 0.07250942 -0.43701792 -0.10253953
0.2292864 0.10805076 -0.051123735 -0.07904384 0.44473708 0.05628016 0.00040087235 -0.01577408
0.122362636 -0.093999684 -0.09528375 0.010720172 -0.07944268 -0.015544268 -0.21899551 -0.2392808
-0.25648168 0.17668311 -0.05539566 -0.0915269 -0.20666201 -0.19354978 -0.020930164 -0.09877426
-0.21508215 0.2227258 0.0006913893 -0.081198364 -0.015251334 0.009965826 -0.17285323 -0.028259514
0.002506233 -0.14006397 -0.17055705 0.04814359 0.122215465 0.82705057 -0.11670931 -0.08764771
-0.0038272627 -0.14247014 -0.033308946 0.3791484 -0.067141265 -0.08486566 -0.036272857 -0.08673738
-0.2154364 -0.0130619155 -0.23050201 -0.073789775 -0.02356032 -0.014543556 -0.16562957 0.064592965
-0.013384647 -0.2424918 -0.24810243 0.060425043 -0.20765634 -0.0020733422 0.64344287 -0.015772985
-1.4805996 -2.4869673 -0.56199396 -0.12470034 -0.58887106 -0.8976733 -0.22408932 -1.6442734
0.0036687083 -2.2516127 -0.40882814 0.028976938 -0.0046962155 -0.026083695 -0.0038250084 0.004279249
-0.15619567 0.032828037 -0.019711392 0.010368247 -2.0129905 -0.89726245 -0.5844946 -1.9241389
-1.965659 0.050234992 -0.7654144 0.3000915 0.14212319 -0.19298463 -0.09253372 0.081644475
-0.004060223 -0.77549857 -0.20040335 -0.061896972 -0.64385486 -0.77175915 -0.00069662626 0.12770455
-0.13797043 0.022756148 0.022634428 -1.7213702 -1.6687775 -0.065041624 -0.055131815 -0.012907999
0.6931171 0.0015598295 -1.9643073 -2.1561122 -0.40778592 0.10114168 -2.5241683 -1.909778
-0.11900945 -1.850641 -0.019389316 -2.5884776 -1.239248 -0.07916925 0.0034482437 -0.10427203
0.0053056073 -0.0062943827 -0.005218135 0.1076157 -0.016743047 0.10723062 -2.8249326 -0.55023724
-0.41723818 -2.5037518 -2.8072476 -0.11249505 -0.51761985 0.13997129 0.23480178 -0.03666533
-0.030558929 0.17410192 0.013734811 -2.9229152 -0.0051257713 -0.08798358 -0.45975444 -2.7606585
0.0034696283 0.04144814 0.16333805 -0.027581973 0.012297615 -1.4931538 -1.8385962 0.13323393
-0.047693852 -0.04597181 -0.20112869 -0.27892786 0.04216158 0.033904944 0.011241775 -0.0043845596
0.019738529 0.004868096 -0.04350438 0.094195515 -2.556747 0.030254336 -0.010237743 0.09513056
-0.13599737 -0.106532775 -0.47630548 -2.2086308 -0.0441502 -0.04846878 -0.34382495 -0.01605245
0.07698691 0.007636725 0.019722473 0.059696414 0.017692713 -0.12209263 -0.08114186 0.12316077
-0.11769363 0.023234684 -0.009596687 -0.052289836 -0.35879597 0.033281673 -0.042794123 -0.0430958
-0.012693723 -0.0004705135 -1.8789151 -0.043725252 -0.08884257 0.009554245 -0.25044668 0.042543013
0.03640653 -0.014569848 -0.04546103 -0.04565385 -0.25172833 -0.22070731 0.030881781 -0.017261298

hidden_layers.1.bias f4 [50]
00000000: 5ac2 103d 8182 77bc ea2e 863e 967a 5b3e
00000010: 6053 bf3e 3528 b43e f005 e1be 7870 bb3e
00000020: 3f5e 8c3d 02ef d33c 78da 403e 4ffb 783d
00000030: 6644 603d eb9d ae3c b423 2f3d abbe d43e
00000040: df0d b93b 5301 e73c 7bdb c73e b091 c43e
00000050: 8201 fd3d 8a70 81be 483b 673d 388a 513e
00000060: ce14 cb3e 9ae6 863e aa10 c73e 9c92 503e
00000070: c037 4b3d c1a8 d03e 5839 d03e 4ed0 903e
00000080: ba1f bf3c fdfc 29bc 270d 5c3e 5aac 3e3d
00000090: 6330 a23e b7dc 7f3e 15d4 123d 7e3f 883e
000000a0: 4a49 b83e 5699 bf3e 2c87 c83e 5f10 c93e
000000b0: 2771 c63e fca3 c33e 34ab 95be f969 7c3b
000000c0: e8d2 c03e 1f23 ad3e
0.035341598 -0.015106798 0.26207668 0.21433482 0.37368298 0.35186926 -0.43949842 0.36609244
0.068539135 0.025870804 0.18833339 0.06078654 0.05475273 0.021315536 0.04275866 0.41551718
0.0056474055 0.028198874 0.39034638 0.383924 0.12353803 -0.25281173 0.05645302 0.20462883
0.3966431 0.2634781 0.388799 0.20368427 0.049613714 0.4075375 0.4066875 0.28283924
0.023330558 -0.0103752585 0.21489392 0.046551086 0.3167754 0.2498654 0.03584679 0.2661094
0.35993415 0.37421674 0.39165628 0.39270303 0.38758203 0.38211048 -0.2923218 0.0038515313
0.3766091 0.33815858

output.weight f4 [4, 50]
00000000: f1eb fd3c 1d5e a93d 99ab 85bd 2dbd a0bd
00000010: 6aa3 673d 2f37 4e3d 3767 f33d 8782 5e3d
00000020: 55fa 0b3d 10fd 043d 86b4 c0bd 86b9 273d
00000030: e2ae 133d 5771 0d3d 703f 073d 69a2 833d
00000040: 94d4 e23c 7643 023d e818 8a3d 1313 4b3d
00000050: e1fb 0e3d f598 063c fb90 0c3d 1cf6 a8bd
00000060: b6ed 4c3d 3a11 8bbd 7034 6b3d b27b afbd
00000070: 5d95 123d 6ba7 833d 7027 7d3d 7fc7 afbe
00000080: 5b61 fc3c 5527 733d e450 c9bd a933 0e3d
00000090: 2d64 5d3d 3819 89bd 61a1 ed3c 5ac1 8fbd
000000a0: 5fba 4e3d ecf2 7b3d 2fcc 823d 6840 6f3d
000000b0: 4d0e 5e3d b20e 833d 7c5c 61ba 0cb9 343d
000000c0: b72c 623d bb44 613d e33b e53c 2737 363d
000000d0: cda8 2abd 409d e0bc 282b 6e3d e0af 543d
000000e0: 7326 1a3e aaeb 923c 7575 eb3b 2cf7 be3c
000000f0: 3c1c 75bb 5861 ac3c 553d 313d dd34 a53c
00000100: 6e6d 2a3d 6ea6 9f3d b9ef 433d 39c0 043d
00000110: 8b4f 303d dece fe3c ae47 9c3d 1455 97ba
00000120: 6168 963d 3d70 a9bc d22c 883d 45ee 38bc
00000130: 029b 053d 9ebe 823b a19c 87bc 1260 b43d
00000140: 7115 d23d d84f 5dbe 610a 123d cf52 933d
00000150: 4466 a7bc 991f 433d 3c62 c03c 627c f8bc
00000160: 405e 203d cd3a 053c 9a26 743d 38fa ef3c
00000170: 5710 643d eee6 613d d7f9 4b3d ba25 363d
00000180: a03d 55bd 18d5 dc3b e379 613d a10c 933d
00000190: 7a3b 7d3d a42e 853e 7860 9ebc 205a 203b
000001a0: f8bb 08bd 4a3f 583c 1372 15be e2a7 393d
000001b0: ce47 9e3d 6cf7 8d3d 7cc1 b1bc 9017 7c3d
000001c0: 7044 d83d c97f da3d 21c7 b93d 2ce1 323d
000001d0: 84fa e93d 25e4 9d3d ebe4 f33c 9005 61bd
000001e0: e450 b53d 90b3 cebc 6a09 df3d ad9b 26bd
000001f0: 36b2 ec3c d771 ecbc e996 ff3c 9969 98bc
00000200: 3773 bf3d af2b 80bd 1292 a1bc 8335 2e3d
00000210: 6654 d53d 5e66 783e 69eb 1abd da1c c73d
00000220: 7008 3c3d 34ce e5bc 0457 b53d 9dab 1abd
00000230: 68cc debc 8b14 1d3d c4f1 b2bd b2de 843c
00000240: c2b0 fdbc 0e03 023c 903c e8bc f7a6 d63d
00000250: e2cf 383c a139 48bc 4c8f 5e3d af63 633e
00000260: 55bc 4cbc d597 31bc ecfd 96bc a0e3 e43a
00000270: 58c9 593d 8736 a5bb 2073 9f3d cca7 dc3d
00000280: db2f 0fbd 9816 0a3e aab8 b43d 450d 76bd
00000290: 7b41 8abd f467 f9bb fab9 003e ee81 b03d
000002a0: 3041 00bc babd a93a 750e b83c e1ce c53b
000002b0: 7865 ea3d 1e5b 15bd f2b3 eb3c 6298 8a3c
000002c0: b4b3 2cbd 103d 30bd 4e43 f43d a2e1 313b
000002d0: 84a1 ee3c e8d5 75bd 868a 0a3e f5c4 7f3e
000002e0: 682f d1bc 0f14 cd3d d99a e23c c1d9 353b
000002f0: a3d9 ba3d d8a1 d43b 0d14 8a3c 0686 b73c
00000300: 5406 f53c 27d7 b1bc 9069 7a3c 4b52 793c
00000310: 3c4d c9bc 90ca bc3d d52f 613b ffd1 c73b
0.030996295 0.08269904 -0.0652687 -0.078485824 0.05655233 0.050345596 0.11884921 0.0543237
0.034174282 0.0324679 -0.09409432 0.040948413 0.036055453 0.034531917 0.033019483 0.06427462
0.027689256 0.031802617 0.06743032 0.049578737 0.03490818 0.008215179 0.03431795 -0.08250067
0.050031386 -0.06790395 0.057423055 -0.08568515 0.035786975 0.06428417 0.06180519 -0.3433189
0.030808141 0.05936368 -0.09829882 0.034717236 0.054050613 -0.06694263 0.029007616 -0.07019301
0.050470706 0.061510965 0.06386601 0.058411032 0.054212857 0.06399287 -0.000859685 0.044121787
0.055218425 0.054997187 0.027982658 0.04448619 -0.041664887 -0.027418733 0.058146626 0.05192554
0.1505373 0.017934639 0.007185633 0.02331122 -0.0037400862 0.02104251 0.04327138 0.020166809
0.041608267 0.07795416 0.04783604 0.03240988 0.043044608 0.031104501 0.07630859 -0.0011545741
0.073441274 -0.020683402 0.06649174 -0.011287277 0.03261853 0.0039900085 -0.016554179 0.088073865
0.10257996 -0.21612489 0.03565443 0.07193529 -0.020434506 0.047637556 0.023484342 -0.030332748
0.039152384 0.008131695 0.059607126 0.029294118 0.055679645 0.055151872 0.049798813 0.044469573
-0.052060723 0.00673927 0.05504788 0.07180143 0.0618243 0.26012146 -0.01933311 0.0024467781
-0.033382386 0.013198683 -0.14594297 0.04532612 0.077285394 0.069319576 -0.021698706 0.06154591
0.105599284 0.10668904 0.09071184 0.043671772 0.11424735 0.07709531 0.029772243 -0.054936945
0.08853319 -0.025232106 0.108904675 -0.040675808 0.028893571 -0.028862877 0.03119989 -0.01860504
0.09348147 -0.06258332 -0.019722972 0.0425315 0.10416488 0.242578 -0.03782216 0.097223
0.045906484 -0.028052427 0.088544875 -0.03776132 -0.027197078 0.03834967 -0.087375194 0.01621947
-0.030968074 0.007935299 -0.028349191 0.10481065 0.011280032 -0.012220771 0.054335877 0.22205995
-0.012496074 -0.010839422 -0.018431626 0.0017462857 0.053170532 -0.0050419006 0.0778563 0.10774192
-0.034957748 0.13485181 0.088242844 -0.06007125 -0.06750771 -0.007611269 0.12570944 0.08618532
-0.007828042 0.001295022 0.022467831 0.006036625 0.11445135 -0.03646385 0.028772328 0.016918365
-0.042163566 -0.043026984 0.119269 0.0027142544 0.029129751 -0.06001845 0.13529405 0.24977477
-0.0255353 0.100135915 0.027661728 0.00277482 0.09123542 0.00648902 0.016855264 0.022402775
0.029910244 -0.021709038 0.015283957 0.015217374 -0.024572961 0.09218323 0.0034360786 0.0060980315

output.bias f4 [4]
00000000: 2c5c 5840 77ad 4c40 a261 5240 3993 4f40
3.3806257 3.1980875 3.287209 3.2433608
