project_one_navigation/model.pt (torch_old, 19763 bytes, 6 tensors)

hidden_layers.0.weight f4 [50, 37]
-0.01785792 -0.000893143 -0.012074255 -0.044482775 -0.09767914 -0.04852522 0.054950397 0.104845494
0.23462814 0.31452447 -0.067995764 -0.062093597 -0.085756056 -0.07419068 -0.04526067 -0.019358242
0.09150757 0.016568558 0.02301156 -0.028623695 6.198276e-05 0.077715226 0.08555459 0.14769526
0.023383642 0.24074773 -0.42796373 -0.53695434 -0.4075587 -1.5475236 -0.11102474 0.0939268
0.0029417924 -0.003624204 0.13648559 -0.01205586 0.0009225295 0.16417585 0.05699727 0.1303695
0.017351506 -0.11657647 0.05836953 -0.092385896 -0.19831312 -0.074783616 0.08777312 -0.0011076091
0.05134731 0.05703163 0.14405255 0.20636986 0.3839824 -0.59339947 -0.27661094 -0.35387227
-1.5513009 -0.08213959 -0.081709266 -0.06308368 0.013609722 0.1620384 -0.11306887 0.094015636
0.0313251 0.16829383 0.2104643 0.10275042 0.0482762 0.061943155 0.08637197 0.06930175
-0.028623547 0.0018118189 0.0627276 0.10204449 0.12639245 -0.022933353 -0.011409592 -0.05335996
0.043449845 0.09204441 -0.14395896 -0.028875396 0.34109023 -0.3709652 -0.14411972 -0.37603998
-1.7638866 -0.03890566 0.09373997 0.13213143 0.0007650893 0.09383472 -0.1708621 -0.055987675
0.03633726 -0.007483846 0.15658677 -0.06503876 0.20031333 -0.0347982 0.031040663 -0.07203903
-0.18566254 -0.110523015 0.008096621 -0.053628445 0.20318839 -0.0069623147 -0.011616411 0.109911814
0.043607764 0.02575296 0.10710708 -0.11481601 0.0038718036 -0.021122262 0.010126364 0.06724847
0.09064149 0.311958 -0.4321502 -0.30050147 -0.30867922 -1.637882 -0.034814812 -0.046602827
-0.110354416 0.026658023 -0.03717167 -0.038224038 0.05332337 0.013319994 0.09569935 0.18443123
0.07507587 -0.04164266 0.03790439 0.111629605 0.047053847 0.038190424 0.081335776 0.08275517
0.085275516 -0.13500358 0.0024603882 0.0049293973 -0.04708548 -0.05043794 -0.073304795 -0.10107798
-0.03264381 0.40876696 -0.5815439 -0.62674236 -0.7215552 -1.9928079 -0.0025268164 0.055954933
0.05042002 -0.015412583 -0.07744797 -0.06922899 -0.0042778435 -0.008008818 0.0443373 0.12074003
-0.0024965266 0.019324668 0.042249534 0.06340485 0.104729354 0.107306115 0.10501033 0.102203675
0.12343098 0.0018611358 0.05477416 0.11691597 0.15765229 0.23011771 0.14603548 0.00072893704
0.0055100042 -0.16197006 0.113489255 0.040258512 -0.06532972 0.10598338 -0.06826949 0.30440015
0.23463528 -0.28289306 -0.90834826 0.007093099 -0.15639928 0.08953783 -0.18949367 0.27366742
0.04605543 0.05511778 -0.06566282 -0.20361614 -0.5912228 0.27831113 0.046926968 -0.032250684
0.06481164 -0.06848591 0.054347567 0.13192278 0.03127657 -0.3463931 -0.6471502 -0.09121425
0.04728294 0.070231184 -0.038918708 -0.51475763 0.04223473 -0.020338517 -0.029203096 0.10266079
-0.14494948 -0.29052514 -0.26613954 -0.03600077 -0.15154667 -0.077223316 -0.06397472 0.4345246
-0.04630911 0.0065287584 0.12937325 -0.07926753 0.093553126 0.043598004 -0.22918454 -0.031437244
-0.13914956 -0.047775555 -0.16137186 -0.01588835 -0.030770428 0.10335237 0.47031465 -0.081769936
-0.15628956 -0.046866853 -0.11669624 0.061829634 0.035128634 -0.13808843 -0.033488594 -0.11929287
00000000: c64a 92bc d021 6aba 19d3 45bc 9233 36bd
00000010: 000c c8bd 62c2 46bd ab13 613d 3cb9 d63d
00000020: 5c42 703e 5a09 a13e 5d41 8bbd db55 7ebd
00000030: dfa0 afbd 49f1 97bd 4163 39bd 2d95 9ebc
00000040: 5268 bb3d c9ba 873c bd82 bc3c 3d7c eabc
00000050: befc 8138 2929 9f3d 3f37 af3d 6d3d 173e
00000060: 0d8f bf3c 9386 763e 101e dbbe d775 09bf
00000070: 89ab d0be 4115 c6bf f060 e3bd b25c c03d
00000080: 16cb 403b 0e84 6dbb e1c2 0b3e f185 45bc
00000090: e8d5 713a b71d 283e f875 693d 957f 053e
000000a0: bf24 8e3c a5bf eebd e314 6f3d d134 bdbd
000000b0: 9812 4bbe 2728 99bd 65c2 b33d 322d 91ba
000000c0: 8f51 523d 009a 693d 8382 133e 9f52 533e
000000d0: 5799 c43e 07e9 17bf f39f 8dbe bf2e b5be
000000e0: 0791 c6bf cd38 a8bd 3057 a7bd 0432 81bd
000000f0: 50fb 5e3c 65ed 253e a790 e7bd 458b c03d
00000100: c04e 003d 3855 2c3e f483 573e d06e d23d
00000110: 44bd 453d 1bb8 7d3d cae3 b03d 13ee 8d3d
00000120: ee7b eabc 8e7a ed3a 5477 803d b4fc d03d
00000130: 066d 013e bade bbbc 4cef 3abc f98f 5abd
00000140: 77f8 313d c881 bc3d fa69 13be 188c ecbc
00000150: 61a3 ae3e 27ef bdbe 1f94 13be 5088 c0be
00000160: 09c7 e1bf 8b5b 1fbd befa bf3d 764d 073e
00000170: 4690 483a 6b2c c03d 79f6 2ebe 5553 65bd
00000180: 61d6 143d 0d3b f5bb 4858 203e 0b33 85bd
00000190: f01e 4d3e 8f88 0ebd fd48 fe3c 3389 93bd
000001a0: 521e 3ebe e459 e2bd b1a7 043c 80a9 5bbd
000001b0: 9e10 503e 2124 e4bb c252 3ebc 7219 e13d
000001c0: 0e9e 323d dff7 d23c f55a db3d a824 ebbd
000001d0: 16be 7d3b 9808 adbc 0de9 253c 91b9 893d
000001e0: 3fa2 b93d f5b8 9f3e ca42 ddbe 54db 99be
000001f0: 340b 9ebe 1ea6 d1bf fa99 0ebd 9be2 3ebd
00000200: 7f01 e2bd ed61 da3c 5241 18bd cf90 1cbd
00000210: 9b69 5a3d 1b3c 5a3c 05fe c33d 8adb 3c3e
00000220: 61c1 993d 7e91 2abd a241 1b3d 109e e43d
00000230: 89bb 403d 906d 1c3d 5f93 a63d 8b7b a93d
00000240: eea4 ae3d 613e 0abe 773e 213b c886 a13b
00000250: b4dc 40bd 0398 4ebd d320 96bd f901 cfbd
00000260: 84b5 05bd e749 d13e 10e0 14bf 3072 20bf
00000270: d7b7 38bf 5414 ffbf f298 25bb 0031 653d
00000280: 3985 4e3d 0f85 7cbc 0b9d 9ebd eec7 8dbd
00000290: 272d 8cbb 6b37 03bc 079b 353d 8d46 f73d
000002a0: c49c 23bb c44e 9e3c d90d 2d3d 67da 813d
000002b0: 587c d63d 4fc3 db3d a80f d73d 2950 d13d
000002c0: 62c9 fc3d 5bf1 f33a df5a 603d a471 ef3d
000002d0: 9a6f 213e faa3 6b3e 538a 153e 2316 3f3a
000002e0: 448d b43b 7bdb 25be 0e6d e83d 1ce6 243d
000002f0: 97cb 85bd d00d d93d e0d0 8bbd 56da 9b3e
00000300: 3b44 703e 5cd7 90be 8389 68bf 3a6d e83b
00000310: 2227 20be 9c5f b73d a10a 42be 231e 8c3e
00000320: 9ea4 3c3d 2ec3 613d 3b7a 86bd c080 50be
00000330: 615a 17bf cc7e 8e3e 7e36 403d 4b19 04bd
00000340: f7bb 843d 5742 8cbd 8e9b 5e3d c416 073e
00000350: dc1b 003d 705a b1be a3ab 25bf 89ce babd
00000360: c2ab 413d 5ed5 8f3d 3969 1fbd 28c7 03bf
00000370: 53fe 2c3d f69c a6bc 553b efbc d23f d23d
00000380: a36d 14be b6bf 94be 7143 88be 8b75 13bd
00000390: 0d2f 1bbe 4227 9ebd 2e05 83bd 027a de3e
000003a0: 9fae 3dbd 32ef d53b 6c7a 043e 0457 a2bd
000003b0: c898 bf3d d293 323d 5aaf 6abe 57c4 00bd
000003c0: 397d 0ebe 4db0 43bd aa3e 25be 4928 82bc
000003d0: 4412 fcbc 68aa d33d 15cd f03e ff76 a7bd
000003e0: 5f0a 20be 75f7 3fbd 70fe eebd 1241 7d3d
000003f0: 0be3 0f3d 0e67 0dbe 562b 09bd d24f f4bd

hidden_layers.0.bias f4 [50]
0.042633712 -0.045606993 0.040974185 -0.0029494893 0.2331527 0.11068056 0.03139838 -0.026248759
-0.010706242 0.28389716 -0.11114056 0.19387993 0.10238483 0.12799251 0.023179524 -0.10884403
0.045078814 0.048589647 0.030919593 0.13592921 0.10732538 -0.058551893 -0.035277378 0.09650031
0.12920563 -0.087297834 0.1091183 -0.11676647 0.035785116 0.050952714 0.13796729 -0.13882725
-0.13193688 -0.0918219 -0.1346808 -0.20040475 0.04032263 -0.053697273 0.01770655 -0.1503352
0.008267604 0.2653233 0.24597572 -0.030826502 -0.15001138 -0.12160251 -0.0850891 -0.057042856
0.048675705 -0.02929102
00000000: b0a0 2e3d 66ce 3abd 8cd4 273d 384c 41bb
00000010: 95bf 6e3e 7dac e23d 969b 003d a307 d7bc
00000020: 3c69 2fbc f85a 913e a99d e3bd 7688 463e
00000030: 23af d13d 7810 033e fce2 bd3c 9ee9 debd
00000040: 90a4 383d f005 473d 164b fd3c 0731 0b3e
00000050: 69cd db3d 1cd4 6fbd 037f 10bd f4a1 c53d
00000060: 7b4e 043e 35c9 b2bd 6a79 df3d 4223 efbd
00000070: 6a93 123d cbb3 503d 4c47 0d3e bb28 0ebe
00000080: 761a 07be 1f0d bcbd c3e9 09be e736 4dbe
00000090: 5829 253d acf1 5bbd 540d 913c 78f1 19be
000000a0: d874 073c 75d8 873e 0fe1 7b3e dc87 fcbc
000000b0: 959c 19be bd0a f9bd 3243 aebd c5a5 69bd
000000c0: 2d60 473d b9f3 efbc

hidden_layers.1.weight f4 [50, 50]
0.22093368 0.134244 -0.026922774 0.27253133 -0.83058816 -0.1812336 -0.010114054 -0.062642284
-0.28771806 0.14546391 0.15493417 -0.4092304 0.19077145 -0.24832517 0.12317786 0.087512836
0.10109796 0.09491419 0.006594835 0.0690665 0.101226 -0.07657878 -0.6319436 0.2885482
0.019085752 0.039278496 -0.038484063 0.12790675 -0.2898165 0.05614776 0.0805185 -0.11360299
0.013297482 -0.030922316 0.080335826 -0.05472974 0.07368645 0.07004275 0.43769118 -0.15000094
0.22555587 0.07236406 0.6095266 0.15800545 -0.08852972 0.007119726 0.117349 -0.045576327
0.044084597 -0.21848698 -0.27877185 -0.12014808 0.23617664 0.25273973 0.0049797636 -0.018389506
0.13877125 -0.123719856 -0.05249383 0.105279155 -0.09473063 -0.043266505 0.18675068 0.19456802
-0.02802147 -0.39159095 0.09904672 0.0056834887 -0.044150714 -0.08425386 -0.2417285 -0.021510605
0.06756687 0.01795012 -0.016551862 -0.005278809 -0.092387974 0.04281599 -0.054354496 -0.13248248
0.015579176 -0.10886087 -0.12142023 -0.10411719 0.04974308 0.1430092 -0.07982297 -0.14686553
0.23451035 0.20356467 -0.010086025 -0.07250575 0.09740205 0.06588546 -0.1933275 0.12437066
0.028081741 -0.030220937 -0.091288015 0.057487488 -0.118994445 0.00079264794 0.34068927 0.39400855
-0.3756423 0.15508825 -0.16394435 -0.20152438 -0.24330108 -0.007857786 -0.046943337 -0.1830073
-0.03504586 -0.016568696 0.047022067 -0.03428491 -0.058977734 0.014575515 -0.15636715 -0.16119911
-0.046233907 -0.20569308 -0.4915761 -0.19857626 -0.037793003 -0.06912889 0.015338573 -0.61909807
-0.22011699 -0.048984803 0.023178032 0.28861102 0.04484074 -0.056022886 -0.013194941 0.07251426
-0.085362755 -0.11119309 0.44012198 0.059283536 -0.1331933 0.09056652 0.5951405 -0.3391925
-0.14848647 0.11435128 -0.00815904 -0.089299604 0.09571909 -0.0952445 0.16712688 0.066826805
-0.23492433 -0.21306029 0.10296974 0.08466382 -0.109315224 -0.13778642 -0.038487572 -0.035322588
-0.06394663 -0.018229427 -0.05070872 0.16476624 -0.059282895 0.12713236 0.02722881 0.1392901
0.009185957 -0.058594164 0.08991793 0.0111186085 -0.068897866 0.23006485 0.16020891 -0.107255414
-0.011484494 0.22113374 0.09730935 -0.05598145 -0.078617916 -0.08530494 -0.015249893 0.09960558
0.20539044 0.15916818 -0.10599818 0.2679922 0.23262429 -0.13879061 0.017129596 -0.11858954
0.20743455 0.01179156 -0.00013089055 -0.112020224 0.12251596 -0.09727027 0.120197214 0.17764394
-0.02998624 0.04836142 0.080002286 0.13317932 0.26438797 0.11534848 0.002273857 0.045433555
0.13932464 0.25925893 0.083445236 0.004318291 0.05296949 0.22130218 0.07762341 -0.039411914
-0.017526645 -0.12174811 0.12164745 0.08435856 0.066288225 0.1398573 0.1129319 0.16187286
0.0969703 0.12131488 0.25506783 0.21797042 0.17122127 0.09285364 -0.02124607 0.046370186
-0.08046441 0.09456603 -0.005850006 0.029551463 0.113378085 -0.025765277 0.33694017 0.08488878
-0.009965234 0.25490892 0.075673506 -0.117171064 0.09486233 0.036060948 0.044362064 0.0016527788
-0.12402806 0.039012827 0.089441665 0.057759617 0.22906527 -0.30392256 -0.08110289 -0.3641939
00000000: 703c 623e 4277 093e 268d dcbc 3a89 8b3e
00000010: 6da1 54bf 4d95 39be 6bb5 25bc 994a 80bd
00000020: c84f 93be 7ef4 143e 10a7 1e3e a686 d1be
00000030: 9759 433e f448 7ebe ad44 fc3d ee39 b33d
00000040: 720c cf3d 5f62 c23d 7c19 d83b bd72 8d3d
00000050: 944f cf3d 56d5 9cbd 0ec7 21bf 97bc 933e
00000060: b959 9c3c 7de2 203d 77a1 1dbd fdf9 023e
00000070: d462 94be 32fb 653d e2e6 a43d afa8 e8bd
00000080: afdd 593c cc50 fdbc 1c87 a43d 4b2c 60bd
00000090: ece8 963d 9372 8f3d 0f19 e03e d999 19be
000000a0: 1ef8 663e 9c33 943d ef09 1c3f 2ecc 213e
000000b0: 124f b5bd 974c e93b ac54 f03d 3eae 3abd
000000c0: 0d92 343d 0dbb 5fbe 2fbb 8ebe 3210 f6bd
000000d0: 4ad8 713e 1a67 813e 492d a33b 97a5 96bc
000000e0: 0d1a 0e3e d660 fdbd c503 57bd 999c d73d
000000f0: 2202 c2bd 3838 31bd 923b 3f3e d73c 473e
00000100: 488d e5bc 9c7e c8be 02d9 ca3d 8f3c ba3b
00000110: 61d7 34bd 4a8d acbd ad87 77be 0237 b0bc
00000120: 8060 8a3d 210c 933c c597 87bc dcf9 acbb
00000130: e835 bdbd d25f 2f3d d2a2 5ebd 7da9 07be
00000140: cd3f 7f3c 73f2 debd 2bab f8bd 653b d5bd
00000150: 66bf 4b3d 0171 123e 3a7a a3bd eb63 16be
00000160: 7b23 703e 4273 503e db3f 25bc e57d 94bd
00000170: ba7a c73d f5ee 863d a5f7 45be 0bb6 fe3d
00000180: ae0b e63c e691 f7bc 36f5 babd 0078 6b3d
00000190: 5cb3 f3bd b4c9 4f3a d36e ae3e 7dbb c93e
000001a0: 3054 c0be 74cf 1e3e 07e1 27be 685c 4ebe
000001b0: eb23 79be f1bd 00bc a847 40bd 4466 3bbe
000001c0: 3f8c 0fbd 13bb 87bc 369a 403d 556e 0cbd
000001d0: a392 71bd 24ce 6e3c b61e 20be 6111 25be
000001e0: c45f 3dbd 35a1 52be ddaf fbbe 9357 4bbe
000001f0: d6cc 1abd 7393 8dbd a34e 7b3c 367d 1ebf
00000200: 5966 61be 4aa4 48bd dbdf bd3c d3c4 933e
00000210: ecaa 373d 4178 65bd 982f 58bc 5b82 943d
00000220: abd2 aebd 34b9 e3bd ab57 e13e 4bd3 723d
00000230: d363 08be f17a b93d 215b 183f a4aa adbe
00000240: d60c 18be 0131 ea3d 7ead 05bc b6e2 b6bd
00000250: 5f08 c43d 8c0f c3bd 4f23 2b3e 7edc 883d
00000260: 0190 70be 7a2c 5abe cde1 d23d 3a64 ad3d
00000270: a9e0 dfbd e217 0dbe 25a5 1dbd 6bae 10bd
00000280: 73f6 82bd e155 95bc f2b3 4fbd 7bb8 283e
00000290: 9fd2 72bd fc2e 023e f40e df3c 10a2 0e3e
000002a0: b280 163c 6f00 70bd e426 b83d d32a 363c
000002b0: 531a 8dbd 1f96 6b3e ce0d 243e baa8 dbbd
000002c0: 7629 3cbc e270 623e 204a c73d ce4c 65bd
000002d0: 6e02 a1bd 5bb4 aebd b0da 79bc 03fe cb3d
000002e0: df51 523e fcfc 223e 9315 d9bd 4636 893e
000002f0: 1035 6e3e 201f 0ebe 5e53 8c3c 13df f2bd
00000300: b969 543e 6331 413c aa3f 09b9 dc6a e5bd
00000310: a6e9 fa3d a335 c7bd f529 f63d 4be8 353e
00000320: b4a5 f5bc a016 463d 3dd8 a33d 2960 083e
00000330: dc5d 873e d33b ec3d fd04 153b 8918 3a3d
00000340: 1eab 0e3e 96bd 843e 56e5 aa3d 7380 8d3b
00000350: 89f6 583d 0a9d 623e 06f9 9e3d 636e 21bd
00000360: 0a94 8fbc 1357 f9bd 4c22 f93d 2ec4 ac3d
00000370: 1fc2 873d c136 0f3e d748 e73d 00c2 253e
00000380: 5d98 c63d f073 f83d 4098 823e a333 5f3e
00000390: a154 2f3e 0d2a be3d 3d0c aebc aaee 3d3d
000003a0: 86ca a4bd d6ab c13d 68b1 bfbb e915 f23c
000003b0: c532 e83d b411 d3bc 6c83 ac3e 2bda ad3d
000003c0: 3945 23bc 6c83 823e b6fa 9a3d 62f7 efbd
000003d0: 2e47 c23d a5b4 133d ffb4 353d 0ea2 d83a
000003e0: 6c02 febd eacb 1f3d 312d b73d 5995 6c3d
000003f0: 1690 6a3e bd9b 9bbe 4619 a6bd 9f77 babe

hidden_layers.1.bias f4 [50]
0.18424372 -0.19216558 0.07356353 -0.013931724 0.48864788 0.2723252 -0.06560104 -0.03275289
-0.053607848 -0.055266548 0.06838034 0.3447554 -0.075361215 -0.17130785 -0.07473308 0.10291673
0.17858218 0.05966113 -0.052115936 -0.08707019 0.010099371 -0.056334715 0.048006702 -0.1370996
0.42768443 -0.120139755 -0.17836985 0.08112156 -0.09307422 0.12311729 0.37904614 0.070024654
0.056720667 -0.039633714 0.16070507 -0.09704411 -0.026489744 0.070924826 0.044176206 0.17249525
0.39054805 0.08636259 0.057590812 0.111435816 0.0005977826 0.083122164 -0.2060752 0.10936588
-0.14790915 -0.06384177
00000000: 63aa 3c3e 0ec7 44be 7aa8 963d e341 64bc
00000010: 0e30 fa3e 356e 8b3e d759 86bd e527 06bd
00000020: e793 5bbd 2d5f 62bd fe0a 8c3d c883 b03e
00000030: fb56 9abd 536b 2fbe a80d 99bd 02c6 d23d
00000040: 3fde 363e 3b5f 743d 8577 55bd db51 b2bd
00000050: d577 253c 3bbf 66bd ada2 443d d663 0cbe
00000060: 74f9 da3e d50b f6bd 96a6 36be 0f23 a63d
00000070: b29d bebd eb24 fc3d 5612 c23e 1669 8f3d
00000080: ee53 683d f656 22bd df8f 243e 10bf c6bd
00000090: 0501 d9bc 0941 913d 1cf2 343d 98a2 303e
000000a0: eaf5 c73e dfde b03d 58e4 6b3d 7638 e43d
000000b0: 83b4 1c3a f43b aa3d 6105 53be 38fb df3d
000000c0: 7f75 17be 79bf 82bd

output.weight f4 [4, 50]
0.2806722 -0.091977306 0.20907965 -0.08490044 0.17635971 0.18880257 -0.1400149 0.012118012
-0.20515943 0.5136752 -0.39257658 0.12667467 -0.063722506 -0.0056923637 0.061871428 0.18793239
0.042346634 -0.020334894 0.0355555 0.27347752 0.15522864 -0.69438046 0.16016033 -0.19822828
0.21458429 0.2029883 -0.27758127 -0.15114178 -0.01256375 0.02682929 0.15455884 -0.12584235
-0.41543832 -0.11211352 0.10520919 -0.04818977 0.29640204 0.50794166 0.061340243 0.0059224446
0.18503661 0.076387905 0.1275072 0.22776864 0.07912902 0.1235556 -0.18727553 0.17530107
0.0876292 0.58246815 0.1877263 -0.05963104 0.296181 -0.10085285 0.21586744 0.06826783
-0.190088 0.12413303 -0.09474542 0.37711972 -0.10836345 0.24525675 -0.14817032 -0.21501534
-0.04636625 0.06492936 0.08439129 0.035478693 0.2240894 0.30339584 0.25380912 -0.09520717
0.20171173 0.033666816 0.21863401 0.39784288 -0.4206435 -0.112002335 0.058382373 0.22639598
0.038238958 0.021472434 -0.02008581 0.10018271 0.15225641 -0.118512005 0.39861977 0.4377201
-0.08902803 0.03346634 0.1308624 -0.06695185 0.025609454 0.2551241 -0.36341506 0.0865971
-0.16863127 0.14997366 0.15538107 0.42087656 0.32752508 -0.037631888 0.3505141 0.115757324
0.15337373 -0.13966623 -0.29993546 0.07823677 -0.027249532 0.38471383 0.054693583 0.17388086
-0.17326759 -0.27693295 -0.5523051 -0.009233143 0.19768755 0.2574453 -0.10891942 0.1334482
-0.02773945 -0.5007904 0.1577032 -0.10093248 0.21583152 0.050593633 -0.43224493 -0.28463525
0.18120186 0.27976242 0.15088953 0.30668068 -0.3404944 -0.6974168 0.004875063 -0.07954588
0.6153218 0.43289393 -0.113377534 0.26425597 0.2330005 0.20383008 0.15998526 0.098333225
-0.16479649 0.28231004 -0.16596113 0.068745844 -0.025419181 0.06321856 0.22482754 -0.051185455
-0.00046467246 -0.08141207 0.2181506 0.21699084 -0.36937684 0.21774596 0.12193569 0.16651276
0.024263749 0.18440464 0.46181387 -0.103557475 -0.15892538 0.055506613 0.18168199 -0.12996104
0.5766716 0.43255413 0.44945335 -0.3205755 0.0002593612 0.27417597 0.14493477 0.5854463
-0.16106161 -0.23348658 -0.069227 0.28399253 0.19589598 -0.5257943 -0.05811419 0.1791625
-0.074579485 -0.42677853 0.20772797 0.3142562 0.055050444 0.2366634 0.19629386 0.1568277
0.19641623 0.10812363 0.22474882 0.09066611 -0.2048741 0.2690194 0.09214346 0.8855814
00000000: 44b4 8f3e 995e bcbd fa18 563e 48e0 adbd
00000010: a497 343e 7655 413e 1160 0fbe a08a 463c
00000020: 5015 52be 3880 033f ccff c8be 01b7 013e
00000030: f280 82bd 0287 babb e56c 7d3d 5971 403e
00000040: aa73 2d3d 5d95 a6bc a5a2 113d 3f05 8c3e
00000050: 42f4 1e3e ebc2 31bf 1201 243e 5bfc 4abe
00000060: fcbb 5b3e 2adc 4f3e 221f 8ebe e9c4 1abe
00000070: 30d8 4dbc 19c9 db3c ac44 1e3e d1dc 00be
00000080: 55b4 d4be c69b e5bd ea77 d73d a362 45bd
00000090: 02c2 973e 7708 023f e83f 7b3d 1111 c23b
000000a0: 3d7a 3d3e 4371 9c3d 3f91 023e 2f3c 693e
000000b0: 650e a23d b80a fd3d 28c5 3fbe 2082 333e
000000c0: f076 b33d a21c 153f 533b 403e ad3f 74bd
000000d0: 09a5 973e f08b cebd 5b0c 5d3e 01d0 8b3d
000000e0: 6ea6 42be 7539 fe3d e309 c2bd d615 c13e
000000f0: a8ed ddbd 9624 7b3e f6b9 17be fb2c 5cbe
00000100: 89ea 3dbd aff9 843d 57d5 ac3d 1b52 113d
00000110: b177 653e b356 9b3e 45f3 813e fafb c2bd
00000120: 858d 4e3e 37e6 093d 98e1 5f3e 10b2 cb3e
00000130: 965e d7be 7b61 e5bd 5b22 6f3d 59d4 673e
00000140: 74a0 1c3d f5e6 af3c ff8a a4bc 982c cd3d
00000150: 1be9 1b3e 6cb6 f2bd e417 cc3e d91c e03e
00000160: 5454 b6bd 0014 093d cb00 063e 0d1e 89bd
00000170: ebca d13c a09f 823e 8a11 babe d259 b13d
00000180: adad 2cbe b292 193e 371c 1f3e 227d d73e
00000190: 5eb1 a73e e523 1abd 9676 b33e 2d12 ed3d
000001a0: 010e 1d3e aa04 0fbe 2491 99be 9a3a a03d
000001b0: 693a dfbc 36f9 c43e 6106 603d d30d 323e
000001c0: 0f6d 31be 28ca 8dbe de63 0dbf 9c46 17bc
000001d0: 9b6e 4a3e dfcf 833e 2511 dfbd a5a6 083e
000001e0: d83d e3bc cd33 00bf f37c 213e b0b5 cebd
000001f0: f002 5d3e 453b 4f3d 354f ddbe b6bb 91be
00000200: fb8c 393e 053d 8f3e c982 1a3e 4005 9d3e
00000210: 4855 aebe e889 32bf febe 9f3b f3e8 a2bd
00000220: bb85 1d3f 46a4 dd3e 7b32 e8bd 8f4c 873e
00000230: af97 6e3e d5b8 503e 2dd3 233e ee62 c93d
00000240: 69c0 28be f18a 903e b7f1 29be 9fca 8c3d
00000250: e33b d0bc bb78 813d 3139 663e d7a7 51bd
00000260: 489f f3b9 5fbb a6bd df62 5f3e d932 5e3e
00000270: f61e bdbe ccf8 5e3e 6bb9 f93d 5282 2a3e
00000280: c5c4 c63c 92d4 3c3e de72 ec3e f115 d4bd
00000290: 56bd 22be e75a 633d d80a 3a3e 8214 05be
000002a0: c0a0 133f bc77 dd3e c01e e63e 7922 a4be
000002b0: dffa 8739 cb60 8c3e c869 143e cfdf 153f
000002c0: 56ed 24be 1b17 6fbe e3c6 8dbd 7867 913e
000002d0: f598 483e 759a 06bf 2509 6ebd 6076 373e
000002e0: 21bd 98bd b782 dabe a4b6 543e 30e6 a03e
000002f0: 937c 613d e457 723e 4201 493e 7197 203e
00000300: 5621 493e ec6f dd3d 8e24 663e 27af b93d
00000310: 84ca 51be e9bc 893e b6b5 bc3d 76b5 623f

output.bias f4 [4]
0.30536675 0.23256065 0.17146556 0.09056846
00000000: 0859 9c3e 6124 6e3e ab94 2f3e f57b b93d
